best_gnn_model.pth (torch, 148948 bytes, 8 tensors)

encoder.0.weight f4 [128, 21]
-0.12635021 -0.121643655 -0.038849954 -0.19216824 -0.012859546 -0.112503886 0.22145313 0.20391922
0.093868665 0.019520734 -0.044262998 0.022786615 -0.14356028 -0.06670586 -0.07671302 -0.044023864
-0.18026754 0.053861514 0.18399909 -0.096783616 0.024735158 -0.076123856 -0.054433256 -0.036906183
0.13828886 -0.017246438 -0.18769298 -0.12930956 0.06011996 0.018466666 -0.04657041 -0.07528692
-0.13453273 -0.12826276 -0.16159533 -0.013872084 0.010472533 0.120611854 -0.098926775 -0.03503338
0.094694726 0.04536269 -0.010408884 0.010230649 -0.023866396 -0.22540905 -0.04837311 -0.08256326
0.15868904 0.14018367 0.008425441 0.15680934 -0.1691702 0.15480311 0.14964451 -0.0651264
-0.20999028 -0.10865853 -0.11513942 -0.03126374 -0.23608078 -0.016374001 -0.12565383 -0.14312254
-0.11075555 -0.09973481 -0.29095882 -0.112410285 -0.033718135 0.054747976 0.20159735 -0.21893486
0.0033799573 -0.11969505 -0.22257535 -0.09787324 -0.121852234 -0.2418029 -0.29217818 -0.14276092
0.12547158 0.037262466 -0.078380354 -0.19890487 -0.2674795 -0.06175254 -0.06774916 0.031632658
0.13886051 -0.061620068 0.050803043 -0.06811827 -0.15529978 -0.051792484 -0.052885987 0.08454573
0.08545538 -0.03577206 -0.12980501 -0.017296616 -0.12965696 0.21720299 -0.20217927 0.17325573
-0.1509229 -0.21275613 -0.030438498 0.005854187 0.104145914 0.12800907 -0.08422703 -0.09311668
-0.018410597 -0.122365646 -0.057635244 -0.26114455 -0.25081635 0.0844667 -0.1820021 0.100158416
-0.041121263 -0.0013211928 0.12664892 -0.18686774 -0.08943372 -0.033260792 -0.011741669 -0.2964687
-0.011608022 -0.21557193 -0.055792876 0.057924505 -0.108619414 -0.091358796 -0.106014945 0.095216714
0.039563842 -0.05301503 -0.21820933 -0.20295581 0.084110186 0.07010955 0.041894663 -0.25986028
0.083081186 -0.10529313 0.07107143 0.21186136 -0.0385859 0.02928729 0.21770221 -0.18093048
0.2515197 -0.19670117 -0.13585278 -0.08120096 -0.08541358 0.025444617 -0.0473442 -0.17630945
0.08885303 0.22542873 0.010081276 -0.22101763 0.051144376 -0.05474911 0.06832056 0.04083773
-0.12914366 -0.23495959 -0.16705906 0.05185176 0.06029673 -0.03260923 -0.14817442 0.1293022
-0.02124073 -0.15053217 -0.15592979 -0.0948561 0.037153386 -0.00047949006 0.09388353 -0.07613494
0.10019269 -0.15295485 -0.16686219 -0.16097943 -0.26909545 -0.20584288 -0.25071248 -0.0798043
-0.060542915 -0.109898895 -0.21604858 0.13539027 -0.12556377 0.037071567 0.08937239 -0.19670616
-0.09420517 0.06352474 0.15827315 -0.09445117 0.095529154 -0.224531 -0.20870514 0.116790116
-0.073992655 0.14862855 -0.048106518 -0.13902262 0.14086199 0.12690875 -0.028224833 -0.19862638
-0.07335987 -0.15342076 0.09266919 -0.053800583 -0.0025457526 0.0659979 0.008377803 -0.18470915
0.11493548 0.07015767 -0.18319122 0.098645955 -0.0015934041 -0.090941764 -0.22220029 -0.14997157
-0.31737956 0.007088879 0.04429928 -0.16629276 0.08485148 -0.19454736 -0.06609482 -0.26952404
-0.12297032 -0.015258621 -0.023458501 -0.12106327 -0.21351011 0.035080604 0.030725945 -0.06844354
-0.21780068 -0.067528 -0.10296641 0.08186762 0.0072365412 -0.03171468 -0.017428182 0.092029735
00000000: f361 01be 4f20 f9bd 2121 1fbd c0c7 44be
00000010: d8b0 52bc 7068 e6bd 9cc4 623e 33d0 503e
00000020: 373e c03d f2e9 9f3c 1e4d 35bd ffaa ba3c
00000030: 7701 13be 159d 88bd b71b 9dbd 5e52 34bd
00000040: 0e98 38be e49d 5c3d 426a 3c3e 7d36 c6bd
00000050: 63a1 ca3c d3e6 9bbd 68f5 5ebd f02a 17bd
00000060: 989b 0d3e 6748 8dbc 9732 40be ba69 04be
00000070: 5940 763d 6847 973c 9dc0 3ebd 0730 9abd
00000080: f3c2 09be 5057 03be 3f79 25be bd47 63bc
00000090: fd94 2b3c 5903 f73d 1f9a cabd 297f 0fbd
000000a0: 4fef c13d 3ace 393d 068a 2abc 749e 273c
000000b0: 7683 c3bc a1d1 66be e222 46bd ed16 a9bd
000000c0: 617f 223e 4f8c 0f3e dc0a 0a3c a192 203e
000000d0: f43a 2dbe b584 1e3e 693c 193e fd60 85bd
000000e0: b107 57be 5d88 debd 37ce ebbd 680e 00bd
000000f0: 29bf 71be c522 86bc 66ab 00be b78e 12be
00000100: ced3 e2bd c441 ccbd 8ef8 94be 5d37 e6bd
00000110: 071c 0abd 6a3f 603d 896f 4e3e 7630 60be
00000120: 4682 5d3b ae22 f5bd cbea 63be c471 c8bd
00000130: aa8d f9bd 2e9b 77be 6198 95be eb2f 12be
00000140: 9f7b 003e 87a0 183d e185 a0bd b8ad 4bbe
00000150: 13f3 88be 3bf0 7cbd 12c0 8abd 3f91 013d
00000160: 7331 0e3e 5365 7cbd da16 503d 9781 8bbd
00000170: e806 1fbe 5b24 54bd fa9e 58bd 5026 ad3d
00000180: 3b03 af3d b985 12bd 9beb 04be a2b1 8dbc
00000190: cbc4 04be 766a 5e3e 1508 4fbe f369 313e
000001a0: 888b 1abe bedc 59be 285a f9bc 7bd4 bf3b
000001b0: 744a d53d cf14 033e 397f acbd f5b3 bebd
000001c0: d2d1 96bc d79a fabd ef12 6cbd bdb4 85be
000001d0: 006b 80be e1fc ac3d c25e 3abe db1f cd3d
000001e0: c56e 28bd e02b adba 41b0 013e 425a 3fbe
000001f0: 0729 b7bd 783c 08bd 2160 40bc bfca 97be
00000200: 932f 3ebc e3be 5cbe 1287 64bd 3f42 6d3d
00000210: db73 debd 521a bbbd 5d1e d9bd fb00 c33d
00000220: b20d 223d 4a26 59bd 4472 5fbe a6d3 4fbe
00000230: f641 ac3d 9995 8f3d bd99 2b3d 680c 85be
00000240: 7826 aa3d eda3 d7bd e68d 913d 2ff2 583e
00000250: 400c 1ebd e6eb ef3c 54ed 5e3e d745 39be
00000260: 31c7 803e 086c 49be fe1c 0bbe b04c a6bd
00000270: 51ed aebd 3b71 d03c feeb 41bd 778a 34be
00000280: 94f8 b53d cad6 663e f02b 253c 7252 62be
00000290: c47c 513d 9a40 60bd a6eb 8b3d 7745 273d
000002a0: 3c3e 04be 3f99 70be 8811 2bbe 8362 543d
000002b0: b4f9 763d 4291 05bd 09bb 17be cc67 043e
000002c0: 0a01 aebc 1b25 1abe 0fac 1fbe ea43 c2bd
000002d0: 262e 183d 1164 fbb9 0246 c03d a3ec 9bbd
000002e0: d331 cd3d 32a0 1cbe ecdd 2abe cbd7 24be
000002f0: e1c6 89be 7ac8 52be 635d 80be 7070 a3bd
00000300: d9fb 77bd ac12 e1bd d73b 5dbe bfa3 0a3e
00000310: ca93 00be 5bd8 173d df08 b73d 576d 49be
00000320: a4ee c0bd 4219 823d 5b12 223e 9d6f c1bd
00000330: caa4 c33d 74eb 65be cdb6 55be a82f ef3d
00000340: 7689 97bd 1532 183e 570b 45bd f25b 0ebe
00000350: 203e 103e 5ef4 013e c437 e7bc b764 4bbe
00000360: b33d 96bd 551a 1dbe 58c9 bd3d 005e 5cbd
00000370: a4d6 26bb e829 873d 0d43 093c 6524 3dbe
00000380: 4b63 eb3d d3ae 8f3d 7b96 3bbe e406 ca3d
00000390: c5d9 d0ba ad3f babd 7988 63be 2692 19be
000003a0: 937f a2be d449 e83b 2973 353d a648 2abe
000003b0: 9dc6 ad3d 6c37 47be b95c 87bd 0eff 89be
000003c0: ddd7 fbbd 4cff 79bc 0b2c c0bc 05f0 f7bd
000003d0: 65a2 5abe aeb0 0f3d fab4 fb3c 202c 8cbd
000003e0: 2407 5fbe 1f4c 8abd 0ee0 d2bd 36aa a73d
000003f0: 8220 ed3b 41e7 01bd 8cc5 8ebc 167a bc3d

encoder.0.bias f4 [128]
0.023207948 -0.051824838 0.053893726 0.21279801 -0.16173247 -0.33824724 0.116668954 -0.2144933
-0.03392499 0.07347985 -0.08882584 0.0441672 0.11644058 -0.13362405 -0.0077176974 -0.06478795
0.18253483 0.17767873 -0.1996812 -0.046437267 -0.0051433737 0.05045451 -0.010425648 0.019984273
-0.080760404 -0.085041314 -0.19380057 0.06011735 0.097832456 -0.18283245 -0.26391748 0.14075541
-0.28520098 0.079440355 -0.29604638 -0.11203495 -0.17934532 0.11537808 -0.029257424 0.11379073
-0.03951106 0.16208152 0.07267233 0.073136844 0.0706166 -0.101110086 -0.03219982 -0.01795549
0.14045386 -0.056467857 -0.3325849 -0.2844776 -0.21750054 -0.0077854837 -0.0979598 -0.112954125
-0.10691307 -0.05374179 -0.27337196 0.22992676 -0.15122162 -0.034603838 -0.021111792 -0.15648499
0.066338286 -0.07240856 -0.10249935 -0.34036857 -0.0056509436 4.51632e-05 -0.09929217 -0.09344774
0.088831685 0.1122332 0.15422095 -0.07959931 -0.059689835 -0.20631048 -0.27680328 -0.15342878
-0.090302326 -0.110230975 -0.26407027 0.02464436 0.058673877 -0.36771134 0.094066106 -0.16232096
0.09508233 0.0062610256 -0.0681248 0.18211783 -0.19685082 -0.18463616 0.06292574 -0.17300081
-0.13776298 -0.10005388 -0.06170995 0.089551814 0.014858652 0.061351378 -0.12559725 -0.05425054
-0.0981996 0.015743867 -0.08392271 0.04684596 0.041555293 0.08277314 -0.06402509 -0.1148992
0.035489004 0.14988895 -0.22973233 -0.06477934 -0.12602212 -0.27131537 -0.32263744 -0.118962444
0.029542658 -0.24689703 0.023630755 0.029210605 -0.2758158 0.019339567 0.1373622 -0.28168985
00000000: 981e be3c 4846 54bd abbf 5c3d b9e7 593e
00000010: 329d 25be be2e adbe 22f0 ee3d 22a4 5bbe
00000020: eef4 0abd 9b7c 963d 52ea b5bd aae8 343d
00000030: 6678 ee3d bed4 08be bde4 fcbb 8baf 84bd
00000040: 69ea 3a3e 6af1 353e 3a79 4cbe 0135 3ebd
00000050: bf89 a8bb 63a9 4e3d 56d0 2abc 0fb6 a33c
00000060: b665 a5bd 242a aebd a873 46be 9c3d 763d
00000070: 625c c83d 6e38 3bbe 3120 87be 3022 103e
00000080: dd05 92be a0b1 a23d 6493 97be 9472 e5bd
00000090: 4da6 37be 584b ec3d 44ad efbc 1d0b e93d
000000a0: 59d6 21bd b3f8 253e 3bd5 943d c5c8 953d
000000b0: 709f 903d ce12 cfbd f5e3 03bd 6417 93bc
000000c0: 23d3 0f3e d74a 67bd 9148 aabe 0ca7 91be
000000d0: 76b8 5ebe 5f1d ffbb 269f c8bd 7e54 e7bd
000000e0: 3df5 dabd 5a20 5cbd 69f7 8bbe ec71 6b3e
000000f0: d7d9 1abe c1bc 0dbd a3f2 acbc 9a3d 20be
00000100: 5edc 873d f04a 94bd 2eeb d1bd ca44 aebe
00000110: 8d2b b9bb 9e6d 3d38 b159 cbbd 8761 bfbd
00000120: 63ed b53d 85da e53d 19ec 1d3e f704 a3bd
00000130: 547d 74bd 0e43 53be 29b9 8dbe 6f1c 1dbe
00000140: 6df0 b8bd c7c0 e1bd 3834 87be f8e2 c93c
00000150: 0554 703d a944 bcbe bba5 c03d 7737 26be
00000160: 86ba c23d 4a29 cd3b 0485 8bbd 197d 3a3e
00000170: 4393 49be 4311 3dbe 36df 803d 2027 31be
00000180: bd11 0dbe 0ce9 ccbd 93c3 7cbd f166 b73d
00000190: b471 733c 954b 7b3d 919c 00be d035 5ebd
000001a0: df1c c9bd 48f9 803c abdf abbd 8de1 3f3d
000001b0: e235 2a3d f784 a93d 961f 83bd 4650 ebbd
000001c0: eb5c 113d 7d7c 193e f43e 6bbe 08ab 84bd
000001d0: f10b 01be d9e9 8abe bc30 a5be 95a2 f3bd
000001e0: 7203 f23c 93d2 7cbe 4995 c13c 144b ef3c
000001f0: bb37 8dbe 036e 9e3c ada8 0c3e a739 90be

conv1.bias f4 [128]
-0.095615685 -0.045153473 -0.06687054 -0.06466207 -0.09081987 -0.05130787 -0.07644127 -0.07768073
-0.059235927 -0.054928117 -0.09328736 -0.080547296 -0.05705641 -0.056856412 -0.026836801 -0.060913045
-0.036143363 -0.06347194 -0.033158503 -0.03753597 -0.064707965 -0.050348293 -0.07137927 -0.010784938
-0.044783022 -0.09862642 -0.067552276 -0.02513999 -0.05721997 -0.040559478 -0.06231107 -0.04976267
-0.08321529 -0.08205004 -0.07566826 -0.092575185 -0.055438563 -0.027727803 -0.054178476 -0.046364315
-0.07122355 -0.064955235 -0.08385881 -0.08455423 -0.05152519 -0.0404326 -0.01965571 -0.057262357
-0.0408767 -0.06356965 -0.056170966 -0.0598644 -0.055582095 -0.10910164 -0.07583644 -0.045066617
-0.059005804 -0.05907318 -0.06472753 -0.092894614 -0.057475753 -0.078355685 -0.053944733 -0.072820425
-0.04278612 -0.061172098 -0.038776044 -0.08933184 -0.05154348 -0.05952645 -0.046507016 -0.11416316
-0.06724136 -0.07894442 -0.06251137 -0.022527996 -0.07744327 -0.05258096 -0.08205242 -0.05289094
-0.05210061 -0.089550614 -0.060055006 -0.0627372 -0.059126142 -0.07213876 -0.06005496 -0.053771
-0.061702255 -0.060332134 -0.04522133 -0.049701277 -0.05598502 -0.060221728 -0.033518486 -0.06017382
-0.060054444 -0.102461256 -0.0560798 0.0014514235 -0.036337495 -0.056323655 -0.057618633 -0.07042487
-0.053964946 -0.041584097 -0.07076538 -0.05213188 -0.063990764 -0.06573209 -0.058302347 -0.08598425
-0.1262249 -0.08748619 -0.047712244 -0.071120165 -0.048751242 -0.068934165 -0.04390907 -0.061649606
-0.053321883 -0.061919373 -0.13005884 -0.084737234 -0.06005496 -0.086748615 -0.013233622 -0.07846778
00000000: 28d2 c3bd d9f2 38bd 6cf3 88bd 8c6d 84bd
00000010: c5ff b9bd 3328 52bd 3e8d 9cbd 1317 9fbd
00000020: 5fa1 72bd 4efc 60bd 720d bfbd fbf5 a4bd
00000030: fbb3 69bd 45e2 68bd dad8 dbbc f57f 79bd
00000040: 100b 14bd 94fd 81bd 36d1 07bd 51bf 19bd
00000050: 9c85 84bd 033a 4ebd 4b2f 92bd 4fb3 30bc
00000060: 676e 37bd a6fc c9bd d958 8abd 61f2 cdbc
00000070: 7d5f 6abd b221 26bd e439 7fbd f1d3 4bbd
00000080: c76c aabd da09 a8bd f6f7 9abd 0f98 bdbd
00000090: 8c13 63bd 6b25 e3bc 40ea 5dbd 82e8 3dbd
000000a0: a7dd 91bd 4007 85bd 2bbe abbd c52a adbd
000000b0: 140c 53bd a79c 25bd 0305 a1bc ef8b 6abd
000000c0: 546e 27bd ce30 82bd 8713 66bd 6034 75bd
000000d0: 0daa 63bd ae70 dfbd 2350 9bbd c697 38bd
000000e0: 12b0 71bd b8f6 71bd de8f 84bd 883f bebd
000000f0: b26b 6bbd f278 a0bd 27f5 5cbd e022 95bd
00000100: 8040 2fbd 988f 7abd a1d3 1ebd 9df3 b6bd
00000110: 421f 53bd 02d2 73bd 247e 3ebd 60ce e9bd
00000120: d7b5 89bd 9dad a1bd f605 80bd a28c b8bc
00000130: 949a 9ebd 225f 57bd 190b a8bd 2ca4 58bd
00000140: 7367 55bd 5066 b7bd 3dfc 75bd 5c7c 80bd
00000150: 412e 72bd 7cbd 93bd 31fc 75bd fb3e 5cbd
00000160: 81bb 7cbd d41e 77bd 003a 39bd 9193 4bbd
00000170: 8c50 65bd 0fab 76bd ae4a 09bd d378 76bd
00000180: a6fb 75bd 35d7 d1bd efb3 65bd b13d be3a
00000190: a0d6 14bd a2b3 66bd 8401 6cbd ea3a 90bd
000001a0: 590a 5dbd 1654 2abd 71ed 90bd 3d88 55bd
000001b0: 970d 83bd 8c9e 86bd 71ce 6ebd 8318 b0bd
000001c0: 1a41 01be f62b b3bd ea6d 43bd 73a7 91bd
000001d0: 62af 47bd 5b2d 8dbd ffd9 33bd 4c84 7cbd
000001e0: 0c68 5abd 2b9f 7dbd 252e 05be b78a adbd
000001f0: 31fc 75bd 42a9 b1bd d5d1 58bc b7b3 a0bd

conv1.lin.weight f4 [128, 128]
0.032489587 -0.05913677 0.003870462 -0.01075344 -0.12092042 -0.14259422 -0.09522342 -0.18664901
-0.08472806 -0.14393686 -0.2019027 -0.04510282 -0.046582736 -0.0036771663 -0.089366615 -0.12514131
-0.07987716 -0.19495574 -0.08071766 0.014050178 -0.06032381 -0.039130487 0.090126425 0.030399224
0.07597747 0.056241844 0.0006659126 -0.059557766 -0.20492232 -0.042760428 0.010411526 -0.042303465
0.019142875 -0.20501271 -0.07563669 0.08126023 -0.19189441 -0.085384995 -0.027628064 -0.18364075
-0.12303476 -0.17522736 0.034549758 -0.112998426 -0.062101 0.057732813 -0.039862126 -0.09989673
0.030645324 -0.1727931 0.057819087 -0.121461004 0.08221123 -0.10570072 -6.799387e-05 0.0682157
-0.15987955 -0.07265126 -0.12446161 -0.006355165 -0.08938846 0.00902217 -0.16209085 -0.12070229
-0.083290294 0.022550562 0.0041976813 -0.103027694 0.025274165 -0.202019 -0.05124383 0.036763676
-0.100688 -0.15573348 -0.15331165 0.06838424 -0.051958922 -0.026435228 -0.16727708 0.01681031
-0.09167224 0.048087504 0.0171163 -0.19595075 0.056414995 -0.1659266 -0.13577749 -0.06455849
-0.21952368 -0.0707668 -0.13415566 -0.10865331 -0.07433466 -0.08883317 -0.0062176907 -0.11497392
-0.058972195 -0.041105814 -0.0976263 -0.20396347 0.031650126 -0.23465244 -0.019158524 0.039243713
0.09979122 -0.15163083 0.043611415 -0.2010131 -0.18969655 -0.032321803 -0.13141653 -0.16235079
-0.036020357 0.05299306 -0.0013797185 -0.0009930732 -0.024019714 0.049678173 -0.12963988 0.050882354
-0.026730852 0.04270325 -0.22266516 -0.02254987 -0.10690087 -0.07501799 -0.22611666 -0.09567988
-0.0991545 -0.101608954 0.15895592 -0.14856164 -0.031006075 0.07577162 -0.021266872 0.12834322
-0.03526868 0.040705364 0.017262317 -0.10620074 -0.16419652 -0.11899073 -0.14849009 -0.13139898
0.043625046 -0.13334931 -0.0824398 -0.086087875 -0.18845344 -0.06975319 0.09314039 -0.048650075
0.026492208 0.12675373 -0.04872732 -0.1569596 -0.13269988 -0.07921737 0.048395988 0.18276672
0.077506855 -0.015214928 0.0015789028 0.053720992 0.026040858 0.07198433 -0.009571291 0.10189061
-0.023007922 0.05300714 -0.006780332 0.04357856 0.12304292 0.114236765 0.08414827 0.11519547
-0.09764198 -0.12140147 0.013426009 0.03608498 -0.08932062 -0.0071139503 0.044233393 -0.059553154
-0.034212478 -0.046771612 0.14426701 -0.0680205 -0.09843386 0.0892932 -0.07913716 -0.1949834
0.03608512 -0.03246721 -0.014831844 0.07693381 -0.0532188 -0.0522972 -0.033074383 0.10084654
-0.07988639 -0.040337455 -0.16027954 -0.052077405 -0.13858774 0.060836624 0.14884497 0.027473463
0.13917308 -0.14994194 -0.00034463656 0.015492256 0.13967957 -0.10376941 -0.1303958 -0.09103306
0.08468922 -0.019966913 0.09791437 -0.049371585 -0.07916969 -0.00024123544 -0.004860006 0.11231443
0.057063986 -0.10896546 -0.05716347 0.05024005 0.10106234 -0.03026129 0.12881356 0.053181767
-0.15932931 -0.088581845 0.062751815 -0.04479276 -0.15871274 -0.10661052 -0.11600566 0.05334184
0.0027568627 -0.12312056 -0.0026170625 0.04682434 0.06610332 -0.026374865 0.07854517 -0.09823305
-0.15682295 0.05941133 0.019441817 0.1034578 -0.017405912 0.04092087 0.0693515 -0.051752117
00000000: cd13 053d 6639 72bd 94a7 7d3b 322f 30bc
00000010: 20a5 f7bd 3804 12be 7f04 c3bd eb20 3fbe
00000020: e885 adbd 2f64 13be 95bf 4ebe bcbd 38bd
00000030: 8acd 3ebd 9dfc 70bb d805 b7bd 0b25 00be
00000040: a396 a3bd 7aa2 47be 4d4f a5bd b832 663c
00000050: 1916 77bd 4a47 20bd 3494 b83d cb07 f93c
00000060: 139a 9b3d d95d 663d a390 2e3a d8f2 73bd
00000070: 28d7 51be 8f25 2fbd 1b95 2a3c 6646 2dbd
00000080: 85d1 9c3c daee 51be 69e7 9abd c36b a63d
00000090: f87f 44be 54de aebd 4054 e2bc 520c 3cbe
000000a0: a6f9 fbbd cd6e 33be 0c84 0d3d b86b e7bd
000000b0: 9e5d 7ebd 3e79 6c3d 7846 23bd a896 ccbd
000000c0: e70b fb3c adf0 30be b5d3 6c3d 8cc0 f8bd
000000d0: 5d5e a83d 9e79 d8bd ee97 8eb8 acb4 8b3d
000000e0: 77b7 23be 2fca 94bd bbe5 febd fd3e d0bb
000000f0: 4c11 b7bd b9d1 133c 25fb 25be c332 f7bd
00000100: 1a94 aabd f5bb b83c b48c 893b 2f00 d3bd
00000110: c40b cf3c 12de 4ebe 0de5 51bd 8295 163d
00000120: 8335 cebd 9978 1fbe bbfd 1cbe 090d 8c3d
00000130: e1d2 54bd b18e d8bc af4a 2bbe c6b5 893c
00000140: a8be bbbd 67f7 443d 7c37 8c3c 50a7 48be
00000150: 6913 673d aae8 29be 4109 0bbe 3e37 84bd
00000160: d1ca 60be 2fee 90bd 1a60 09be a085 debd
00000170: c53c 98bd 2aee b5bd c5bd cbbb 7277 ebbd
00000180: d48c 71bd 925e 28bd 4cf0 c7bd cddb 50be
00000190: 90a3 013d bb48 70be 56f2 9cbc 04be 203d
000001a0: 575f cc3d 1d45 1bbe e2a1 323d 61d6 4dbe
000001b0: d03f 42be de63 04bd 0e92 06be 493f 26be
000001c0: 158a 13bd 400f 593d acd7 b4ba 022a 82ba
000001d0: fec4 c4bc 577b 4b3d 51c0 04be 046a 503d
000001e0: a9fa dabc 9ae9 2e3d 5602 64be 81ba b8bc
000001f0: d8ee dabd 08a3 99bd 208b 67be d0f3 c3bd
00000200: 8411 cbbd 5b18 d0bd 57c5 223e 8b20 18be
00000210: 7400 febc 272e 9b3d dd37 aebc 686c 033e
00000220: e475 10bd abba 263d b469 8d3c c67f d9bd
00000230: 2223 28be 69b1 f3bd c90d 18be 748d 06be
00000240: 2db0 323d b98c 08be 33d6 a8bd d74e b0bd
00000250: f0f9 40be c3da 8ebd 64c0 be3d 4d45 47bd
00000260: 3006 d93c bbcb 013e 4c96 47bd 04ba 20be
00000270: 7ae2 07be b73c a2bd df3a 463d 3327 3b3e
00000280: eabb 9e3d 0948 79bc 30f3 ce3a 8b0a 5c3d
00000290: a353 d53c 856c 933d e7d0 1cbc 06ac d03d
000002a0: 1c7b bcbc 041e 593d 8c2d debb 6f7f 323d
000002b0: edfd fb3d f7f4 e93d ee55 ac3d 9aeb eb3d
000002c0: 85f8 c7bd 55a1 f8bd c3f8 5b3c d8cd 133d
000002d0: bbed b6bd 241c e9bb 132e 353d 02ee 73bd
000002e0: 6222 0cbd 9793 3fbd bbba 133e 554e 8bbd
000002f0: b197 c9bd 5adf b63d aa12 a2bd baa9 47be
00000300: fecd 133d 56fc 04bd 4301 73bc 798f 9d3d
00000310: f5fb 59bd 9735 56bd 0179 07bd a188 ce3d
00000320: 7a9b a3bd e338 25bd 5220 24be 1e4f 55bd
00000330: f2e9 0dbe d32f 793d d16a 183e 0710 e13c
00000340: 6383 0e3e 618a 19be 56b0 b4b9 3bd3 7d3c
00000350: 2908 0f3e 0e85 d4bd 7a86 05be 8a6f babd
00000360: 8b71 ad3d a791 a3bc 5487 c83d dc39 4abd
00000370: b823 a2bd 25f4 7cb9 af40 9fbb 1c05 e63d
00000380: edbb 693d 4829 dfbd 3e24 6abd 83c8 4d3d
00000390: c6f9 ce3d 86e6 f7bc b4e7 033e 20d5 593d
000003a0: 3927 23be 666a b5bd 0684 803d 9d78 37bd
000003b0: 9885 22be 9e56 dabd 6094 edbd f97c 5a3d
000003c0: 7bac 343b a226 fcbd 0683 2bbb e1ca 3f3d
000003d0: 2d61 873d 1a10 d8bc 4adc a03d 692e c9bd
000003e0: 3296 20be 4b59 733d 7244 9f3c afe1 d33d
000003f0: d896 8ebc a49c 273d 2908 8e3d 07fa 53bd

conv2.bias f4 [128]
-0.13357465 0.011145636 -0.061816536 -0.0023644958 -0.10329576 -0.00225059 -0.002543743 -0.00067399465
-0.020591937 -0.0026443962 -0.037832692 0.20068309 -0.048416145 -0.042275853 -0.05813021 -0.09436122
0.20773423 -0.03873022 0.0073062833 -0.061651286 -0.062122673 -0.07228001 -0.036234938 -0.08272375
-0.06204583 -0.076893516 -0.05242286 -0.21732745 -0.061068356 -0.16904724 -0.060451787 0.07400305
-0.013623091 -0.35000113 -0.15154687 -0.020088661 -0.012843688 -0.18947946 -0.052661907 -0.05012418
-0.064340234 -0.079491444 -0.06224441 -0.05698202 -0.08972057 0.026619459 -0.09975763 -0.1090047
-0.10081072 -0.090403154 -0.060535017 -0.27323163 -0.04156921 -0.008421062 -0.04304143 -0.029680615
-0.11604358 -0.008826263 0.029090833 -0.02277737 -0.11399706 -0.1098658 -0.051995747 -0.16323595
-0.14167915 -0.14722554 -0.08712477 -0.045984525 -0.044435628 -0.13884073 -0.04613321 -0.0021589287
-0.05188726 -0.14810914 -0.016702894 -0.058686465 -0.074274644 -0.061777357 -0.072202094 -0.067386806
-0.0044120867 -0.0027245819 -0.10161445 -0.11846339 -0.14490624 -0.07898561 0.023379425 -0.11034405
-0.06950519 -0.019582761 -0.055220306 0.09737538 -0.117589176 -0.049464393 -0.06698855 -0.093975365
-0.16766778 -0.06005502 -0.080385394 -0.0935571 -0.073756106 0.0060966946 -0.08836997 -0.059694994
-0.12113422 -0.035061978 0.020731648 -0.09646915 -0.041041415 0.0018327623 -0.10299845 -0.1252895
-0.012409659 -0.2665047 -0.046851274 -0.09795737 -0.06726072 -0.32491925 -0.20317127 -0.047170777
-0.07240436 0.1004185 -0.08030169 0.2082684 -0.17144331 -0.13388711 -0.13572615 -0.015022237
00000000: cbc7 08be 309c 363c 5633 7dbd a8f5 1abb
00000010: ba8c d3bd a27e 13bb edb4 26bb 04af 30ba
00000020: 6cb0 a8bc 9b4d 2dbb 74f6 1abd de7f 4d3e
00000030: 0250 46bd 7229 2dbd f119 6ebd 7540 c1bd
00000040: 48b8 543e 94a3 1ebd 8c69 ef3b 0f86 7cbd
00000050: 5874 7ebd 8b07 94bd 166b 14bd 126b a9bd
00000060: c523 7ebd 597a 9dbd 5ab9 56bd 168b 5ebe
00000070: d022 7abd b81a 2dbe 4b9c 77bd e98e 973d
00000080: 6333 5fbc 5933 b3be 1a2f 1bbe fa90 a4bc
00000090: 556e 52bc e706 42be 03b4 57bd 034f 4dbd
000000a0: d0c4 83bd 69cc a2bd fff3 7ebd fb65 69bd
000000b0: 6bbf b7bd 0d11 da3c ba4d ccbd db3d dfbd
000000c0: da75 cebd 4a25 b9bd 91f3 77bd 04e5 8bbe
000000d0: 7a44 2abd 7ef8 09bc 364c 30bd c324 f3bc
000000e0: 42a8 edbd 089c 10bc e64f ee3c 9b97 babc
000000f0: 4a77 e9bd 5201 e1bd 7ef9 54bd 5327 27be
00000100: 5714 11be 4bc2 16be 796e b2bd 455a 3cbd
00000110: 2202 36bd 442c 0ebe 2df6 3cbd d07c 0dbb
00000120: bc87 54bd eca9 17be 82d4 88bc 3861 70bd
00000130: 4e1d 98bd 410a 7dbd b1de 93bd 1802 8abd
00000140: 4493 90bb e68e 32bb 3d1b d0bd ef9c f2bd
00000150: 4d62 14be 35c3 a1bd 3586 bf3c 10fc e1bd
00000160: bd58 8ebd 076c a0bc b02e 62bd be6c c73d
00000170: 98d2 f0bd 2d9b 4abd 4b31 89bd 2876 c0bd
00000180: 1ab1 2bbe 41fc 75bd 19a1 a4bd dd9a bfbd
00000190: 710d 97bd c8c6 c73b 51fb b4bd bd82 74bd
000001a0: 3815 f8bd 269d 0fbd 6bd5 a93c 9e91 c5bd
000001b0: 0b1b 28bd 4c39 f03a daf0 d2bd e44b 00be
000001c0: e251 4bbc 4e73 88be 1fe7 3fbd e09d c8bd
000001d0: fdbf 89bd d15b a6be 210c 50be 2536 41bd
000001e0: bd48 94bd 37a8 cd3d 3675 a4bd 5044 553e
000001f0: d68e 2fbe b419 09be ccfb 0abe d41f 76bc

conv2.lin.weight f4 [128, 128]
-0.089547575 -0.1008119 -0.062066387 -0.0076890294 0.027343202 -0.0126211755 -0.08660459 -0.0323629
-0.1707716 -0.19670853 0.07926469 -0.040982664 -0.14621522 -0.11648761 -0.026396574 -0.15540583
-0.082221545 -0.00348338 0.0750468 -0.14958988 -0.17777938 -0.14890566 -0.09201128 -0.20543888
-0.060473073 -0.029571224 -0.059010956 -0.093514636 -0.19674627 0.08168843 0.029554531 0.10078114
0.06779552 0.045776084 0.029530335 0.10834019 -0.21318465 -0.1436986 -0.16501154 0.16677822
-0.15342182 0.18475455 -0.102715135 0.064254686 -0.12075006 -0.16988099 0.087447345 -0.075082205
-0.20792013 0.05403709 -0.20667404 0.08910793 -0.010941194 -0.048255 -0.18030588 -0.11794699
0.054852676 -0.062001508 0.009740833 -0.0450731 -0.060246207 -0.104261614 -0.10440123 -0.099369705
-0.13840023 0.043446608 -0.1198481 -0.15904438 -0.09773692 0.0663676 0.0106408745 0.0514709
0.023959443 -0.09592723 -0.08761598 -0.07601952 -0.030944886 -0.17569171 -0.19095455 0.05636892
-0.13619034 -0.1438487 0.031745363 -0.11838306 0.058027543 -0.07731628 -0.13856687 0.1432132
-0.19835486 -0.07191309 -0.038856946 0.10318512 -0.0475654 0.05279718 -0.19165622 0.080969274
-0.040227402 -0.09168027 -0.16268213 0.0058527575 0.05150226 0.03045196 -0.048879 0.0044547757
-0.17962502 0.00048692228 -0.07842165 -0.02758062 -0.1555762 -0.1730382 -0.06456395 -0.061875567
0.07265181 -0.03749982 0.04672834 -0.12152592 -0.17628242 -0.12807545 0.06593431 0.009147473
-0.028500425 -0.04810413 0.0721695 -0.06888636 0.060895916 -0.026215428 0.027365934 -0.011150663
0.021699568 0.027141033 -0.081130214 0.09198558 -0.12985227 -0.08894728 -0.03521193 -0.014973823
-0.10754321 -0.0962569 0.111554846 0.064379886 0.057978403 -0.068520404 -0.042267203 0.09319205
-0.16280071 0.107994005 -0.16602044 -0.13699862 -0.067956515 0.026644424 -0.13178356 -0.12139158
-0.14803162 0.032178234 -0.078858666 -0.16889438 0.03106966 -0.17124312 0.059525955 -0.20107618
0.15707727 -0.100153014 -0.037754603 -0.12044363 -0.1740283 -0.104395896 -0.062258992 -0.14634848
-0.16135003 0.026407257 0.1158486 -0.004219754 0.033411555 -0.062040363 -0.10254597 -0.012236126
0.0057244063 0.021241268 0.039866515 -0.08327217 -0.02881891 -0.055465117 -0.10375812 -0.16343611
-0.004094672 -0.11209478 0.1467883 0.057960324 -0.040936287 0.15030062 -0.024419481 -0.11472069
-0.13916442 -0.06525166 0.064755194 -0.07793567 -0.14328441 0.19323194 -0.14091416 0.087652445
0.1809382 -0.022791367 0.05347767 -0.010943457 0.008385836 0.071521565 0.06404718 -0.19690137
0.10689295 0.09885489 0.043807905 -0.055870112 0.01574837 -0.07994885 0.14837694 -0.1813827
-0.0200622 0.06696707 -0.019772628 0.08683664 0.052760806 0.0038153664 -0.035225235 -0.016651288
0.20687002 -0.106323406 -0.013819309 -0.15771042 -0.13838133 -0.08826981 -0.0021544779 -0.10205578
-0.06551195 0.04171785 0.00059297757 -0.18960054 0.13322142 -0.032835606 -0.0061045927 0.06721389
-0.028885795 0.027440941 0.09880146 -0.18812731 -0.13222776 0.021449657 0.07584597 -0.047511734
0.08410752 0.11557887 -0.09857583 0.12495342 0.2050967 0.004500559 -0.012211805 -0.023610178
00000000: b864 b7bd 7876 cebd 5339 7ebd 41f4 fbbb
00000010: dafe df3c 0cc9 4ebc bf5d b1bd f68e 04bd
00000020: c0de 2ebe f66d 49be 8755 a23d 70dd 27bd
00000030: 71b9 15be 0e91 eebd a13d d8bc b522 1fbe
00000040: c563 a8bd 6b49 64bb 23b2 993d 172e 19be
00000050: cc0b 36be ba7a 18be 6970 bcbd 925e 52be
00000060: 9db2 77bd 5a3f f2bc 79b5 71bd 9a84 bfbd
00000070: db77 49be 434c a73d 581c f23c 5866 ce3d
00000080: 61d8 8a3d b47f 3b3d 9ae9 f13c 76e1 dd3d
00000090: 144d 5abe ba25 13be c9f8 28be e9c7 2a3e
000000a0: 9c1a 1dbe 4c30 3d3e 505c d2bd f697 833d
000000b0: cf4b f7bd 48f5 2dbe 9817 b33d b3c4 99bd
000000c0: 04e9 54be ff55 5d3d 5ca2 53be 387e b63d
000000d0: b242 33bc 09a7 45bd 1ba2 38be 318e f1bd
000000e0: 33ad 603d 4bf5 7dbd 0498 1f3c 929e 38bd
000000f0: bac4 76bd 1d87 d5bd 50d0 d5bd 5882 cbbd
00000100: cab8 0dbe 12f5 313d ec72 f5bd 88dc 22be
00000110: 4b2a c8bd bceb 873d 1057 2e3c 27d3 523d
00000120: 9846 c43c 7f75 c4bd 0270 b3bd 1fb0 9bbd
00000130: 2180 fdbc 87e8 33be 9789 43be 19e3 663d
00000140: 7b75 0bbe 134d 13be 6d07 023d d172 f2bd
00000150: 4aae 6d3d ff57 9ebd 79e4 0dbe 7ba6 123e
00000160: 891d 4bbe 2c47 93bd 7628 1fbd b852 d33d
00000170: f0d3 42bd db41 583d 8741 44be 38d3 a53d
00000180: 7dc5 24bd dec2 bbbd 2596 26be 7dc8 bf3b
00000190: 09f4 523d 6476 f93c 5935 48bd 5ef9 913b
000001a0: 9fef 37be 9a49 ff39 889b a0bd c1f0 e1bc
000001b0: 5e4f 1fbe ed30 31be 1b3a 84bd 3c71 7dbd
000001c0: 79ca 943d 6999 19bd 3766 3f3d 95e2 f8bd
000001d0: 6183 34be 3626 03be 9108 873d 48df 153c
000001e0: b979 e9bc d608 45bd 9acd 933d 4b14 8dbd
000001f0: ff6d 793d bdc1 d6bc 862e e03c 45b1 36bc
00000200: 4bc3 b13c df56 de3c 9927 a6bd f062 bc3d
00000210: fef7 04be fe29 b6bd 623a 10bd c454 75bc
00000220: 9d3f dcbd 5622 c5bd de76 e43d 9ad9 833d
00000230: c37a 6d3d 6d54 8cbd 6020 2dbd 79db be3d
00000240: 3bb5 26be f62b dd3d 4301 2abe 5e49 0cbe
00000250: c92c 8bbd 6845 da3c 45f2 06be 269c f8bd
00000260: 9a95 17be 53cd 033d a780 a1bd a6f2 2cbe
00000270: cd85 fe3c 5b5a 2fbe 7dd1 733d eae6 4dbe
00000280: ddd8 203e 061d cdbd 92a4 1abd 26ab f6bd
00000290: 7a34 32be 84cd d5bd 4903 7fbd 60dc 15be
000002a0: f138 25be 0854 d83c 0842 ed3d dd45 8abb
000002b0: 8eda 083d 091e 7ebd 9f03 d2bd 087a 48bc
000002c0: cd93 bb3b 2b02 ae3c 124b 233d 998a aabd
000002d0: a215 ecbc 642f 63bd 237f d4bd cc5b 27be
000002e0: 992c 86bb f391 e5bd ac4f 163e ce67 6d3d
000002f0: cfac 27bd 68e8 193e 5d0b c8bc aef2 eabd
00000300: 1e81 0ebe aaa2 85bd 5f9e 843d bd9c 9fbd
00000310: 26b9 12be 98de 453e cd4b 10be 2083 b33d
00000320: dd47 393e f6b4 babc 670b 5b3d 2f4c 33bc
00000330: bf64 093c e679 923d 2b2b 833d 83a0 49be
00000340: b1ea da3d 6f74 ca3d eb6f 333d 0fd8 64bd
00000350: ba02 813c 39bc a3bd 20f0 173e 63bc 39be
00000360: 7c59 a4bc 0826 893d 35fa a1bc 69d7 b13d
00000370: b71b 583d 3a0b 7a3b 5648 10bd 4868 88bc
00000380: bcd5 533e 16c0 d9bd 626a 62bc d77e 21be
00000390: d6b3 0dbe cdc6 b4bd 2432 0dbb 9f02 d1bd
000003a0: 212b 86bd 56e0 2a3d 0d72 1b3a a526 42be
000003b0: 326b 083e a17e 06bd 0909 c8bb 70a7 893d
000003c0: e7a1 ecbc d3cb e03c 6b58 ca3d 72a4 40be
000003d0: b766 07be 31b7 af3c 2255 9b3d aa9b 42bd
000003e0: 9040 ac3d 9db4 ec3d 20e2 c9bd 94e7 ff3d
000003f0: df04 523e 6d79 933b 0614 48bc 226a c1bc

cls_head.0.weight f4 [4, 128]
-0.0149285365 -0.0113146715 -0.031006675 -0.0042959326 0.014815168 -0.020664094 0.035362 -0.0044051623
-0.061113283 0.026692562 -0.0060220254 0.07402935 -0.041628856 -0.023187887 0.01734021 -0.028758278
0.101479396 -0.029288303 0.031705696 0.087069005 -0.02072192 -0.0665534 0.010426236 0.09192801
0.0001480665 0.037711494 0.00034082055 0.010343928 0.025907885 0.11274121 0.031133825 -0.025469845
-0.015133874 0.1260852 0.0642576 0.008627454 0.008923494 -0.0042659016 0.017577255 0.044204235
-0.02711325 -0.0010708881 0.030984344 0.045499384 -0.035268284 -0.037510734 0.12664868 0.13622797
-0.032749344 -0.03681256 0.018442655 0.09264753 -0.01101184 0.011229429 -0.026762934 -0.02127382
-0.015360132 0.108883485 -0.036364395 -0.05201143 0.011193265 -0.014596868 0.018630292 0.0445685
0.056982193 0.0027355817 0.049065504 -0.0070993463 -0.06526004 0.11536707 0.08476745 0.10084402
0.07006194 0.029429082 0.012792875 0.014795363 0.045198895 0.004322305 0.05163894 -0.0021168238
-0.041964415 -0.015527054 -0.0010111998 -0.03588241 -0.007411595 0.058851384 -0.058388 0.05180711
-0.02168564 -0.076446734 0.050043307 0.15938155 -0.01692419 -0.04802344 -0.013981348 0.04982116
-0.047403667 0.014435146 0.03865135 0.06356582 0.12995431 0.027566412 0.021346519 0.08884599
-0.025412668 -0.07380549 -0.015626905 -0.020826323 -0.021801058 0.0776947 -0.02820698 -0.007979742
-0.053329322 -0.0076522287 0.04867571 0.091204025 0.0712192 0.008950533 -0.06469305 0.03224104
0.0055942927 0.014776828 0.068923414 0.07023552 0.012586203 0.13073976 0.04609338 0.0097342
0.1098001 0.011424188 0.08718566 0.060357966 0.046929266 0.012693685 -0.005092563 -0.09215371
-0.015883867 -0.027620854 0.03446725 0.04917081 -0.00011296095 0.05115847 0.039340407 0.047181226
-0.030094564 0.038981 0.024397345 0.06455469 0.02245489 0.08301894 0.029229205 0.059963666
0.018343447 0.047644366 0.027279096 0.12028299 0.03580553 0.029965095 0.060797878 -0.041228842
-0.022984443 0.10974095 0.019033426 0.019281346 -0.020196524 0.010630475 -0.009841075 0.04241618
0.08230752 0.011853587 0.045563303 0.01818833 0.059780817 -0.016804302 0.031201953 0.06977689
0.0238001 0.09586586 0.047224157 0.029751347 0.07394653 0.007976472 0.020057993 0.0135937445
0.047235325 0.0006611727 -0.06246966 -0.04667883 -0.06391218 0.17332873 0.036343932 0.06366938
0.030377584 0.107211724 0.058024406 -0.05245291 -0.07081783 0.059356038 -0.04622203 -0.04349022
0.027015327 0.04779003 0.05965236 0.13312823 -0.030341554 0.08723366 0.04671508 0.059833173
0.04630056 -0.06273113 -0.001648244 -0.0022814851 0.07361903 0.109164715 0.008051372 -0.11494231
0.06271983 0.079093724 -0.025205469 -0.03809777 0.02072988 0.009171983 0.0544513 0.036156107
0.08245594 -0.0070369206 0.027994715 -0.089611225 0.037203554 -0.04120234 0.042487018 0.01121886
0.043163262 -0.0044463677 -0.0034965558 0.054572336 0.044894468 -0.011547154 0.10611249 0.14804544
0.026721297 0.043602582 0.033537824 0.002246339 0.084939204 0.043751806 -0.061758347 0.056112703
0.0003256685 -0.018944986 0.027024563 0.044335198 0.04312481 -0.0010728397 0.066901244 0.012276222
00000000: d296 74bc 2c61 39bc b601 febc e5c4 8cbb
00000010: 52bb 723c bf47 a9bc bfd7 103d 2e59 90bb
00000020: ec51 7abd 5caa da3c 6954 c5bb b39c 973d
00000030: 0583 2abd 86f4 bdbc 0e0d 8e3c 7b96 ebbc
00000040: 6ed4 cf3d 06ee efbc d5dd 013d 3c51 b23d
00000050: 04c1 a9bc 264d 88bd ced2 2a3c c144 bc3d
00000060: 4c42 1b39 5e77 1a3d 29b0 b239 9479 293c
00000070: c63c d43c dde4 e63d 5d0c ff3c 23a6 d0bc
00000080: 11f4 77bc 7b1c 013e 7d99 833d 2a5a 0d3c
00000090: d933 123c fac8 8bbb 2dfe 8f3c 800f 353d
000000a0: 9b1c debc 0b5d 8cba e1d2 fd3c 905d 3a3d
000000b0: 7a75 10bd dba4 19bd 31b0 013e 587f 0b3e
000000c0: 2d24 06bd c4c8 16bd 0d15 973c fdbd bd3d
000000d0: 016b 34bc a4fb 373c f13d dbbc 6f46 aebc
000000e0: 10a9 7bbc 4efe de3d d5f2 14bd f009 55bd
000000f0: f563 373c b427 6fbc 8e9e 983c 768d 363d
00000100: 2966 693d 7247 333b e9f8 483d a2a1 e8bb
00000110: 0ea7 85bd 9245 ec3d 8f9a ad3d 4f87 ce3d
00000120: a27c 8f3d 4215 f13c 3599 513c 4068 723c
00000130: 7a22 393d 1fa2 8d3b 5a83 533d 69ba 0abb
00000140: e1e2 2bbd 2f65 7ebc 3c8a 84ba 6ff9 12bd
00000150: f7dc f2bb 260e 713d 4128 6fbd b133 543d
00000160: 15a6 b1bc 1b90 9cbd 36fa 4c3d eb34 233e
00000170: 99a4 8abc 3ab4 44bd 0612 65bc 4611 4c3d
00000180: 592a 42bd 6481 6c3c e150 1e3d cc2e 823d
00000190: be12 053e f5d2 e13c e5de ae3c e3f4 b53d
000001a0: 3a2e d0bc 5527 97bd ff03 80bc f79b aabc
000001b0: 2298 b2bc 661e 9f3d 5312 e7bc 77bd 02bc
000001c0: d96f 5abd 8cbf fabb 2e60 473d 2dc9 ba3d
000001d0: 5fdb 913d 42a5 123c ca7d 84bd 2e0f 043d
000001e0: 5450 b73b 821a 723c b827 8d3d a4d7 8f3d
000001f0: 5d36 4e3c a5e0 053e 69cc 3c3d 327c 1f3c
00000200: e0de e03d 842c 3b3c 658e b23d ea39 773d
00000210: e738 403d 2cf9 4f3c 84df a6bb 16bb bcbd
00000220: e21e 82bc 2145 e2bc 882d 0d3d 5567 493d
00000230: 73e5 ecb8 8b8b 513d 6823 213d 1a41 413d
00000240: e088 f6bc 8baa 1f3d f1dc c73c 4035 843d
00000250: 51f3 b73c d605 aa3d 1672 ef3c 769c 753d
00000260: ff44 963c bd26 433d 6978 df3c ee56 f63d
00000270: d2a8 123d 5c79 f53c 3207 793d 93df 28bd
00000280: df49 bcbc ddbf e03d fdeb 9b3c eaf3 9d3c
00000290: 2e73 a5bc 722b 2e3c 763c 21bc 97bc 2d3d
000002a0: d890 a83d 8c35 423c 96a0 3a3d b1ff 943c
000002b0: bbdc 743d 2da9 89bc 3d9b ff3c 30e7 8e3d
000002c0: 6df8 c23c 5255 c43d 1e6e 413d 19b9 f33c
000002d0: 4771 973d c0af 023c a950 a43c 4cb8 5e3c
000002e0: d479 413d 8c52 2d3a 30e0 7fbd 4d32 3fbd
000002f0: 64e4 82bd 167d 313e 60dd 143d 1865 823d
00000300: 69da f83c d291 db3d 00ab 6d3d ddd8 56bd
00000310: f008 91bd 511f 733d 5053 3dbd cd22 32bd
00000320: 3f4f dd3c 7abf 433d 0856 743d c452 083e
00000330: da8e f8bc 90a7 b23d 5058 3f3d a113 753d
00000340: a8a5 3d3d 2e79 80bd e409 d8ba f884 15bb
00000350: 93c5 963d c091 df3d e7e9 033c e066 ebbd
00000360: 4173 803d e4fb a13d b37b cebc 680c 1cbd
00000370: b6d1 a93c 1646 163c 5408 5f3d 6d18 143d
00000380: a9de a83d f895 e6bb 2c55 e53c 1786 b7bd
00000390: c162 183d c9c3 28bd de06 2e3d 4fcf 373c
000003a0: f6cb 303d d6b2 91bb 7926 65bb 3e87 5f3d
000003b0: 43e3 373d 4630 3dbc 8151 d93d 3999 173e
000003c0: 9fe6 da3c 9f98 323d f55e 093d 5137 133b
000003d0: 9bf4 ad3d 1835 333d 52f6 7cbd 6fd6 653d
000003e0: 7cbe aa39 8432 9bbc 9e62 dd3c d398 353d
000003f0: a4a3 303d 879e 8cba 8503 893d 3522 493c

cls_head.0.bias f4 [4]
0.029786114 -0.107195206 0.015551982 0.19777031
00000000: 0202 f43c 2989 dbbd becd 7e3c 4d84 4a3e
